Gestures_classifier_MetaData.tflite (tflite, 6476 bytes, 6 tensors)

sequential/dense/BiasAdd/ReadVariableOp f4 [24]
00000000: 3e6d 5cba dfdd 32ba dddf fb3e 9e86 78bb
00000010: 3ae7 09bb 7016 a23e 514c dd3e 9ae4 063e
00000020: fe8a b73e f010 c6b9 3e36 cdba 684c b43e
00000030: e571 1e3f 07d2 10ba 607c d13e 83e0 ffba
00000040: 5094 963e 2253 20bb d43c 0abb f830 f2b8
00000050: af40 cf3e 41ac 8cbb c2de a9ba 1515 23bd
-0.00084086123 -0.00068232225 0.49194232 -0.0037922035 -0.0021042363 0.31657743 0.43222287 0.13173142
0.3584823 -0.00037778122 -0.0015656424 0.35214543 0.6189254 -0.00055244606 0.40915203 -0.0019521866
0.29410028 -0.0024463614 -0.0021093385 -0.000115485804 0.40479037 -0.004292995 -0.0012960064 -0.039815027

sequential/dense_2/BiasAdd/ReadVariableOp f4 [5]
00000000: bccc 813e a74e 2abe 10ca c9be 065f 8ebe
00000010: 20c7 1ebe
0.25351512 -0.16631566 -0.39411974 -0.27806872 -0.15505648

sequential/dense_1/BiasAdd/ReadVariableOp f4 [10]
00000000: ece5 cb3e 6d5c 223f 58d2 f53c c53d 2c3f
00000010: 8f92 073f 7142 213f c660 30bf 263f 20bf
00000020: 8b86 9bbe 7320 fd3d
0.39823854 0.6342228 0.030007526 0.6728175 0.52958006 0.62992007 -0.68897665 -0.62596357
-0.30376086 0.12359705

sequential/dense/MatMul f4 [24, 32]
00000000: ca24 093e 9834 683d fbad 073f ad8b acbe
00000010: 106d 433e 93bd ffbd 38b0 6f3e 36f6 f4bd
00000020: 3427 d83e 853b b4be 34d9 2a3f 2221 1dbe
00000030: 0abb e13e 3984 94be f912 3b3e 8a44 5dbd
00000040: 300d 003f 231b 94be b6fd 053f 04a3 48be
00000050: 8718 3b3f a7a5 6cbd 5830 213f dad5 89be
00000060: 9b2a 943e d2e1 72bd 0cf8 3e3f 6a2b cbbd
00000070: 9377 20bd d4dc e2be 52ff 043d 7f47 33bf
00000080: e0d3 51bd 947a 653e 0c80 44bd 3f73 88be
00000090: 7774 8d3d 1267 20bf 6604 cebd 3b0e 3dbe
000000a0: cdc8 4ebe 5500 08bf 345d 9abe 053b edbe
000000b0: f5e5 13bf 1b1d 94be 6662 bebe a0a6 58bd
000000c0: 891c d7bc 4adf c7be d2fe 2bbe c111 08bf
000000d0: a00f d1be e414 1dbe 33f4 46be f625 0dbf
000000e0: fdc6 4ebe 0f4c 0fbf 1b8d c9be 41d2 f1be
000000f0: 2733 b7be 6477 0fbf 070d 0abf 1385 b1be
00000100: 000e bb3d 9854 53bd 9860 93be 419b 4f3d
00000110: 05f7 4fbe a172 a2be 68f1 18be 9d8e bbbd
00000120: 9f33 10bf 9380 28be d717 aebe c165 babd
00000130: e857 78bd 8591 8dbe 5557 13bf 91f6 bcbe
00000140: d3a8 c2be a1e3 b03c 5d42 cfbe fcfa c5be
00000150: 50e0 ddbe c5e5 10bf a2de 99be 862c 54be
00000160: 8241 cfbe 7c51 c0bd cecb 70be b84f 0cbf
00000170: a09e 4cbd 49a0 aebe f9f6 f4bd 3928 90be
00000180: a337 9dbe 6ac3 afbd 8446 043e 8d44 32be
00000190: 0270 e4be 1f9b b43e 3d83 51be dc86 c5bd
000001a0: 3072 86be 2550 133f d362 f63d 78be 973e
000001b0: 513f 93bd d664 ff3d 8d39 0b3e 666c 0f3f
000001c0: 4087 0abe 2c99 af3e 92e2 c33d 7682 403f
000001d0: d4a2 f43d 9937 ec3e 0c8c 483e 09aa 1f3f
000001e0: c691 0b3d fef2 e13e 512e e0bd 3d05 123f
000001f0: a110 05be 24c6 f93e 78aa 91bd 0333 363f
00000200: a810 5e3d ec7a 67be f212 abbe e8d4 42be
00000210: 7a20 29bf 8b63 a3be 60cc fdbe 7689 bfbe
00000220: 57a5 b9be 8942 09bf 2145 44bf 7111 f33b
00000230: 6ede 96be df46 ddbe 8899 20bf 45f1 7abe
00000240: 8865 12bf 5cbd 01be 7b6d 05bf eb61 94be
00000250: 7c2f 04bf 3db6 d5bc 92a1 3dbf 02ca 99be
00000260: c0ee ebbe 2165 05bf 7712 3abf cf42 58be
00000270: ab5f 0dbf 6091 90bd 3ce4 cdbe 60ad 953d
00000280: 7a70 8d3e fb9b 5fbe c876 293d 6858 14be
00000290: 95d1 243d 9c79 a33e c711 25be 8d34 263d
000002a0: cf44 e7bd 5655 7ebd 82c7 143e 9d9e 043e
000002b0: 6af3 a0bc bb07 6a3e b945 78bd 3394 473d
000002c0: aeb0 7a3e 811f ddbc 24bf b73d e8f7 0e3e
000002d0: 3023 a43e 39b6 723e 1b41 e03d 0566 073e
000002e0: 9577 8e3d 616b 8c3e e8b5 943d d87a 793e
000002f0: af3d 373e bc99 eb3c 8400 d23e f548 193e
00000300: 80fa 74bb 5eb3 80be 5c9d 6dbd 3aea 403d
00000310: 0990 063d 9ae5 993d 3115 843e 6bc2 823e
00000320: b438 153f 2e98 703e f22f ec3e 60b1 163e
00000330: 9d81 1a3f 5b66 1c3e b831 263f 67fa bc3e
00000340: 6e20 693e ff6e 4c3d 5ccc 033f e5d7 af3e
00000350: 015b 233f 5fa5 32bb 5b42 eb3e af57 693e
00000360: af3f 1a3f 1b9c e0ba 9850 803e 9718 973e
00000370: 7472 013f 8200 c33e 9256 ec3e 9c88 9f3e
00000380: 884c 6c3d 2669 9c3e d775 c5bd 2e20 0f3e
00000390: 7815 34bf 487b b2bd e8dc febe a028 4f39
000003a0: 2725 8bbe ece0 ffbc e3fc 49bf 499a 69bc
000003b0: 064b 29bf dabc a43c a84e 04bf 689c 833b
000003c0: 42be 3fbf 7aa6 a43d 8555 e8be 3ca1 bcbd
000003d0: 1726 42bf d7ed 32be f1e5 e3be e49e 8ebd
000003e0: 0b45 43bf 29d8 e0bd a0e9 f7be b36a e8bd
000003f0: 0d1a 903d 3654 29bd 6c60 8ebe 0d67 d6bb
0.1339294 0.056690782 0.5299985 -0.33700314 0.19084573 -0.1248733 0.23407066 -0.119610235
0.4221741 -0.3520166 0.66737676 -0.1534467 0.44088012 -0.29007128 0.18268956 -0.054020442
0.5002012 -0.28926954 0.5234026 -0.19593436 0.730843 -0.057775166 0.6296439 -0.26920968
0.28938755 -0.05929739 0.7459724 -0.0992039 -0.039176535 -0.44309103 0.032470055 -0.7003097
-0.05122745 0.22410041 -0.047973678 -0.26650426 0.069069795 -0.6265727 -0.10059433 -0.1846246
-0.20193787 -0.53125507 -0.30149233 -0.4633409 -0.5777276 -0.28928456 -0.37184447 -0.05289328
-0.026258724 -0.39037544 -0.16796425 -0.5315209 -0.40832233 -0.1534 -0.19429092 -0.5513605
-0.20193096 -0.5597543 -0.39365467 -0.47230724 -0.35781214 -0.5604155 -0.5392613 -0.3467184
0.0913353 -0.051594347 -0.28784633 0.05068517 -0.20309074 -0.3172808 -0.14935839 -0.09158061
-0.5632877 -0.16455297 -0.34002563 -0.09101439 -0.06063071 -0.27650085 -0.57555133 -0.36906865
-0.38019428 0.021592917 -0.4048032 -0.38668048 -0.433352 -0.566006 -0.30052668 -0.2072011
-0.40479666 -0.09390542 -0.23515245 -0.5480914 -0.049955964 -0.34106663 -0.11961169 -0.28155687
-0.3070651 -0.08582194 0.12917525 -0.17408963 -0.44616705 0.35274598 -0.2046022 -0.09644863
-0.26258993 0.57544166 0.12030568 0.29637504 -0.07189811 0.12470405 0.13596173 0.5602478
-0.13528156 0.34296548 0.09564699 0.7519907 0.119451195 0.46136168 0.19584674 0.6236883
0.034074567 0.441307 -0.10946334 0.57039243 -0.12994625 0.48783982 -0.071125925 0.7117159
0.054215103 -0.22605485 -0.33412892 -0.1902653 -0.6606518 -0.31911883 -0.49569988 -0.37409562
-0.36258957 -0.5361715 -0.7666798 0.0074178507 -0.29466575 -0.43218133 -0.6273427 -0.245061
-0.57186174 -0.12669891 -0.5212018 -0.28980955 -0.51634955 -0.026087875 -0.7407466 -0.30036932
-0.4608059 -0.52107435 -0.72684425 -0.21119235 -0.552241 -0.07058978 -0.40213192 0.07308459
0.27624875 -0.21836846 0.041373044 -0.1448685 0.040238936 0.31928718 -0.16120063 0.04057746
-0.11292421 -0.0620931 0.14529231 0.12951131 -0.019647319 0.22854511 -0.060613368 0.04872532
0.2448146 -0.026992561 0.08972004 0.13961756 0.32058096 0.23702325 0.10949918 0.13222511
0.06956402 0.27425674 0.07261258 0.24363267 0.17894624 0.02875983 0.41016018 0.14969237
-0.0037380755 -0.25136846 -0.058011398 0.047098376 0.032852206 0.07514496 0.25797418 0.25538954
0.5828965 0.23495552 0.4613033 0.147161 0.60354024 0.1527342 0.64919615 0.36909792
0.22766277 0.04991054 0.514837 0.34344402 0.63810736 -0.0027259213 0.45949063 0.22787355
0.60253423 -0.0017136367 0.25061488 0.29510948 0.50565267 0.38086325 0.46159798 0.31158912
0.057690173 0.30548972 -0.09641617 0.1397712 -0.7034526 -0.0871492 -0.49777913 0.00019756192
-0.27176782 -0.03123518 -0.789015 -0.014257976 -0.661301 0.020109583 -0.5168252 0.004016448
-0.74899685 0.080395654 -0.45377746 -0.092104405 -0.7583937 -0.17473541 -0.4451137 -0.069639
-0.76277226 -0.10978729 -0.4842043 -0.11348476 0.07036219 -0.041340075 -0.2780794 -0.0065430463

sequential/dense_1/MatMul f4 [10, 24]
00000000: 68f2 2bbf 24a4 e0be ebf4 143f b54d cbbe
00000010: 1808 993e 5ec0 a73e f377 493d d93b fe3e
00000020: 9b8c d63d a309 ebbe 2548 81bf 1229 353f
00000030: 8ebb 7b3e ff9c dfbe 6fd3 b13e fcc5 493d
00000040: 990e 313f 46a4 dabe 6e58 ddbe 28e8 17bf
00000050: 5437 d63e 0f49 72be 681f ffbe 4142 17bf
00000060: 4315 8ebf 46c9 883e e406 113f e7b2 0dbf
00000070: e16b a23e 32db bdbd 52bd a53e 4c12 453f
00000080: 6dcc 593d 3421 b4be b0a8 fabe 2ba6 da3e
00000090: d2be aa3e 9e64 6bbf 42f9 39bd e8e8 4b3e
000000a0: 1f44 0b3f d4cd 05bf c6cf aabe 4ef4 0cbf
000000b0: d2df f73c 8f86 36bf 68e2 d2be bc60 04bf
000000c0: b680 973c f169 c43e 0571 fabe a649 f33d
000000d0: ae83 8abe 97b1 073e 26d6 e9be 4d4a 14be
000000e0: bc3f 57bd c8ae e1be 9b7f 16be 633e b13e
000000f0: b87d ccbb bf4c 8bbe 9f25 12bf b98d f73e
00000100: 7691 3e3d 404c 98bc 342b cdbe 0a6f 22be
00000110: a189 87be 4b73 113e 1840 9a3d 85e3 1b3d
00000120: db5c 44be 2b41 bebe d098 183f 2d00 03bf
00000130: 0b6f b3be 8870 f93d 4ed9 363d b211 473e
00000140: c2e9 5f3e 6134 55be b89f 57bf c340 db3e
00000150: caf9 4e3f 3f85 ee3d a8b9 2c3d a01d d1be
00000160: ae10 693e 6f3b 49bc f262 323e b987 eabe
00000170: f3ba d1bc d0f5 4dbf a9e3 5eba b4ff d9be
00000180: c340 36bf 1652 48bf e6c2 303e 81c2 363f
00000190: daa5 30bf 9505 263f bb87 303f 5717 2bbe
000001a0: f609 4f3f 91c8 46bf bf75 8f3b 9517 ef3d
000001b0: c1f5 373e 8885 37bf ba35 da3e e652 51bf
000001c0: d41a 21bd fb03 3dbf 7d21 21bf 03a8 9a3e
000001d0: 26c3 413f e600 803e 5ea8 5cbf a2df 563f
000001e0: 521b 47bc 727e f7be 7f5b 95bb f9a6 03be
000001f0: fbb5 28bf 427a 813f fcb3 4d3f 2943 89be
00000200: 448b 3a3f 3a75 f1bd ffee be3e d094 14be
00000210: 1731 ea3e 2c75 8a3e 39f1 6e3f dbdf 0cbf
00000220: 443d cabd d03a 84be 4b7e b6bc fc4d 003f
00000230: ffe6 2d3f 4f74 493e 94cf e83e 12f4 963e
00000240: 3adc 0e3f 32ca 873e 33c8 9a3e da8e 473f
00000250: bcc7 a63c f25c d63e 79ab fc3e 48df 7dbe
00000260: 6e5e df3e d7ac 723f 52ab 163f 1c81 de3d
00000270: d257 f63e 1201 553f e003 ca3e 6d96 693d
00000280: 465c bc3d 7342 683f eec8 a73e 51cc 4d3f
00000290: 04b8 1c3f 8d50 343f de9c fb3e be70 2b3f
000002a0: c78e 383f 3177 11be 2533 0cbe 2b6d 6dbe
000002b0: 7bcd f6bd d001 2e3e 2e01 113f 5afe dfbe
000002c0: eeef f03e c73e 413f 7aff b23e 703a eabe
000002d0: 1a51 5c3f 61c5 3c3f 0c11 803e e986 1f3e
000002e0: 2db6 4bbf 1ecb d23e 1a16 843e 3eae 07bd
000002f0: 92e0 fe3e fbc2 003e c067 2e3f a2ac 22bd
00000300: aa68 203e 8c41 373f 0d18 633f f226 c23e
00000310: 4ab7 7b3f 349f 25bf c6f5 27bf 6ba5 533f
00000320: aef3 33bf 7796 f23e b4c7 c33d 2d9c 543f
00000330: 6b9c e93d b31c bf3e a636 0dbf 54c8 623f
00000340: c26d 3a3f 013c 623e c97e 173f 60ae 49bc
00000350: a050 1cbf 732f 00bf ff4c 413e 5cef 21bf
00000360: 4d4f bb3e 6816 22bd 23ae aa3c 9804 18bf
00000370: 98cd 6d3c db2b f6be 2620 3a3e 10c7 5c3d
00000380: 2740 54be 0f24 fb3e fa6b f6be ddee 873d
00000390: 3f56 073f ddb0 993e ce57 923e b1df 493c
000003a0: deb7 193e 8681 933e eff0 983e 2cbd 0abe
000003b0: 3f77 a9bc e8d3 353d 9bdf 0b3f 0b03 74be
-0.6716676 -0.4387523 0.58186215 -0.39707723 0.29888988 0.32763952 0.049186658 0.49655035
0.10476037 -0.4590579 -1.0100142 0.70765793 0.24583265 -0.43674466 0.34731624 0.04926108
0.691629 -0.42703456 -0.4323153 -0.5933862 0.41839087 -0.23660682 -0.4982865 -0.5908547
-1.1100239 0.2671606 0.5665114 -0.5535111 0.3172293 -0.09270324 0.32371002 0.76981044
0.05317347 -0.35181582 -0.48956823 0.427049 0.3334871 -0.91950405 -0.045403726 0.19913065
0.5440082 -0.52267194 -0.33361644 -0.5506028 0.030258093 -0.7129907 -0.4118836 -0.51710105
0.018493991 0.38362077 -0.48914352 0.11879282 -0.2705359 0.13251339 -0.45671195 -0.14481468
-0.052551016 -0.4407866 -0.14697115 0.3461791 -0.006240573 -0.2720699 -0.57088655 0.48350313
0.04652544 -0.018591046 -0.40072024 -0.1586267 -0.2647219 0.14204137 0.07531756 0.038058776
-0.19176047 -0.37159094 0.59608173 -0.51172143 -0.35045657 0.12179667 0.04464083 0.19440344
0.21866515 -0.20820762 -0.84228086 0.42822847 0.808499 0.116465084 0.042169243 -0.40842915
0.22760269 -0.0122822365 0.17420557 -0.45806673 -0.02560184 -0.80453205 -0.0008502552 -0.42577899
-0.7119257 -0.78250253 0.17261848 0.7139054 -0.6900307 0.6485227 0.6895711 -0.16708122
0.80874574 -0.7764979 0.00437805 0.1167442 0.17964841 -0.7168813 0.42619115 -0.8176712
-0.039332226 -0.738342 -0.62941724 0.30206308 0.756884 0.25000685 -0.8619441 0.83934987
-0.01215251 -0.48338658 -0.0045580263 -0.12856664 -0.6590268 1.0115435 0.8035276 -0.26809052
0.7286875 -0.11789937 0.37291715 -0.14509892 0.45740578 0.2704252 0.93336827 -0.55029076
-0.09874967 -0.2582612 -0.022277018 0.50118995 0.679306 0.19673274 0.4547087 0.29483086
0.5580479 0.2652145 0.30230865 0.7795235 0.020358913 0.41867787 0.49349573 -0.24792206
0.43626732 0.9479498 0.58855164 0.108644694 0.48113877 0.8320476 0.3945608 0.057028223
0.09197287 0.90726393 0.32770485 0.8038989 0.61218286 0.7043541 0.49143118 0.66968906
0.7209286 -0.14205624 -0.13691385 -0.23186176 -0.12050911 0.16992879 0.56642425 -0.43748742
0.47058052 0.75486416 0.34960538 -0.4574771 0.8606125 0.73738676 0.25013006 0.15578808
-0.79574853 0.4117059 0.25798112 -0.033125155 0.4978071 0.12574379 0.6812706 -0.039715417
0.15664926 0.7158439 0.88708574 0.37920338 0.9832655 -0.6469605 -0.65609396 0.8267428
-0.702937 0.4738042 0.09559575 0.83050805 0.114067875 0.37326583 -0.5516151 0.88586926
0.7282373 0.22093202 0.59177834 -0.012309641 -0.61060524 -0.500724 0.18877028 -0.6325586
0.3658394 -0.03957215 0.020834988 -0.5938201 0.014514349 -0.48080334 0.18176326 0.05390078
-0.20727597 0.49050948 -0.48129255 0.066373564 0.52865976 0.30017748 0.28582615 0.012321399
0.15011546 0.28809756 0.29871318 -0.13548726 -0.020686744 0.044391543 0.5463807 -0.23829286

sequential/dense_2/MatMul f4 [5, 10]
00000000: 991c 413f c234 d23e a78e b53d acda 6c3f
00000010: 7768 b93e a3dc 053e 51a9 b7bf f17d 2bbf
00000020: 11af 83bf fa57 903e 4fef 273f 252f e73e
00000030: 4956 143f 3ca2 aebd 07f5 7bbf 48cc a3bf
00000040: 93b9 a0bf e956 20bf 8d00 1a3f 0d10 8dbf
00000050: 3478 8abe 9567 3dbf c933 0bbf 44f2 3dbf
00000060: f177 27bf 2c3f 2d3e 318d ca3e 47ee 8f3f
00000070: 6ef1 34bf fd41 15bd 97fe e4be 8d01 2ebf
00000080: dc07 ca3c 5326 1e3f b1ab 93bf f7fd 92bf
00000090: eafc 423e ff65 2d3d c19c 583f e962 5d3f
000000a0: eb2e 74bf b359 84bf 29f5 9cbe e09f 71bf
000000b0: c90c 3f3f 7874 703e 85ac b5bc 730c 09bf
000000c0: 7b27 a3be f5ed 2cbf
0.7543426 0.41055876 0.088650994 0.92521167 0.36212513 0.13072447 -1.4348546 -0.66989046
-1.0287801 0.2819212 0.6559953 0.45153156 0.5794416 -0.085270375 -0.9842076 -1.2796717
-1.2556633 -0.62632614 0.6015709 -1.1020523 -0.27044833 -0.7398618 -0.5437589 -0.74197793
-0.6541739 0.1691863 0.39560845 1.1244591 -0.7068089 -0.036439884 -0.44725487 -0.67971116
0.02466195 0.6177723 -1.1536771 -1.1483754 0.19041792 0.0423336 0.8461419 0.8647905
-0.9538409 -1.0339874 -0.30655792 -0.94384575 0.74628884 0.2348193 -0.02217699 -0.5353462
-0.3186606 -0.67550594
