Sign_classifier_MetaData.tflite (tflite, 6528 bytes, 6 tensors)

sequential_1/dense_5/BiasAdd/ReadVariableOp f4 [3]
000000 47 03 95 3e 28 13 93 3e 59 c7 e5 be
       0.29104063 0.28725553 -0.44878653

sequential_1/dense_4/BiasAdd/ReadVariableOp f4 [10]
000000 28 f2 a4 be 3f dd 96 be b5 9a 80 bd d1 d1 c8 3e
       -0.32216 -0.29465672 -0.06279508 0.39222577
000010 f5 7e 18 3f 57 3f 86 3e c5 8b 39 3f 82 b9 af 3e
       0.5956872 0.262202 0.72478896 0.3432122
000020 d1 3e 11 3f e0 51 51 be
       0.56736475 -0.20441389

sequential_1/dense_3/BiasAdd/ReadVariableOp f4 [20]
000000 b0 af 2f be 07 30 d1 be 17 ca 03 bf 9e a1 47 bd
       -0.17156863 -0.40856954 -0.5148024 -0.048738115
000010 8c e7 c9 be 35 d8 0d bf d0 f5 d7 3d a0 99 cf be
       -0.3943447 -0.5540803 0.10544932 -0.40546894
000020 ab 22 9d be a1 ef 1a be ce 20 7b be 19 98 bc 3e
       -0.30690512 -0.15130474 -0.24524233 0.3683479
000030 ca 1e 72 bd a6 88 d3 be c5 1c 6c be 49 ab 0f bf
       -0.059111394 -0.41315192 -0.2305785 -0.56120735
000040 4c 33 93 3d ab 5f 51 bd 51 4f 95 3e 27 1d d0 3e
       0.071875185 -0.051116627 0.29162076 0.4064724

sequential_1/dense_3/MatMul f4 [20, 42]
000000 74 75 98 3e 58 84 93 3d f1 9a 22 3f 25 27 40 3e
       0.2977711 0.07202977 0.6351767 0.18764932
000010 f1 66 12 3f 61 11 c1 3b e9 f2 46 3f e1 4a c5 bd
       0.57188326 0.0058919643 0.777144 -0.09633423
000020 d7 45 83 3f 31 7f b5 bc 67 8f a1 3e d9 e7 e5 3c
       1.0255688 -0.022155376 0.3155472 0.028064655
000030 d4 68 70 3d 81 ea 59 bc a3 40 cd 3e 29 3c 9d bc
       0.058693722 -0.013300539 0.40088376 -0.019193726
000040 99 a7 00 3f 08 11 9b 3c ad 2c 55 3d 5f 55 ea 3d
       0.50255734 0.01892902 0.05204456 0.114420645
000050 d0 80 80 be 7c 9b 21 bd 28 d1 0a be 09 ab a0 3d
       -0.25098276 -0.039454922 -0.1355635 0.07845122
000060 5e 2c d6 bd eb a5 da 3d e1 c0 e5 3d 61 bf 1a 3e
       -0.10457681 0.106761776 0.11218429 0.15112068
000070 2b db b0 bd 69 9a a6 bd 0c 2f db be 23 9b 1f 3e
       -0.08635553 -0.0813492 -0.4280933 0.15586524
000080 16 fb 50 be 75 4a 20 bd 22 db d0 3d 43 0c c8 3d
       -0.20408282 -0.039133508 0.10198046 0.09767964
000090 47 61 5d be b1 61 e3 3d 12 55 f3 be c0 9b 54 3e
       -0.2161914 0.111026175 -0.4752584 0.20762539
0000a0 7d 12 16 bf b9 94 91 be 23 bf 3f be 00 91 88 3d
       -0.5862196 -0.2843378 -0.18725257 0.066682816
0000b0 40 f7 eb 3e 31 35 42 3e 2b 87 78 3e a5 dd f5 bd
       0.46087074 0.18965603 0.24270312 -0.12005166
0000c0 33 38 f4 3d 17 95 bf 39 63 48 fd 3d 29 9b 17 bc
       0.11924782 0.0003654144 0.12367322 -0.009253302
0000d0 82 2c 2c bc 3e 6e 69 3d 77 9c 99 be e0 26 8c 3c
       -0.010508658 0.0569899 -0.30002186 0.01710838
0000e0 17 c1 d8 bc 1b 33 75 3d 3e bf 05 3e 4e 93 60 3d
       -0.02645926 0.05986319 0.13061234 0.05482798
0000f0 d1 10 32 be 6c 8d 75 3d 36 2c 88 bc d1 a0 24 bd
       -0.17389227 0.059949324 -0.016622644 -0.04019243
000100 d4 a2 c2 3d 9a 07 38 bf 97 36 4a be da 48 6d be
       0.09503713 -0.718866 -0.19747387 -0.23172322
000110 36 5b 08 bf 25 3c 9b 3d 14 f6 a0 bb 61 0e d4 3b
       -0.53264177 0.07579831 -0.0049121473 0.0064714407
000120 91 90 15 bc ca e2 b2 be 4d 1d d4 bd f4 66 be be
       -0.009128706 -0.3493865 -0.10357151 -0.37187922
000130 25 c7 68 be 41 e8 01 3d 1c ee 6d 3e 6a 3b 18 bd
       -0.22732218 0.031715635 0.23235363 -0.037166037
000140 9f 69 fe 3d 3f d6 22 be fb aa 1a 3e 40 81 73 be
       0.124224894 -0.15902041 0.15104286 -0.23779774
000150 00 88 8b 3a d2 52 03 3e 81 70 86 be dd 9f 87 3e
       0.001064539 0.12824562 -0.2625771 0.26489154
000160 9f 69 a9 be 98 cb c6 3e a6 17 3a bd 3a 6a 63 3d
       -0.33088395 0.38827205 -0.04543271 0.055521227
000170 de 62 d0 be 1e 8f 58 3c 41 42 8a 3c 63 03 00 3e
       -0.4070043 0.013217716 0.016877295 0.12501292
000180 7e 89 72 bd 9c 36 c0 3c d2 05 7d bc 3b 32 aa 3d
       -0.059213154 0.02346354 -0.015443282 0.08310362
000190 9b 61 2c be 64 9d 94 3d 78 25 44 bd 20 55 92 3d
       -0.16834109 0.072565824 -0.047887295 0.071451426
0001a0 f9 79 39 be 02 75 a7 3d 88 7e 3c 3e c9 f6 61 3d
       -0.18112935 0.08176614 0.18407643 0.055166993
0001b0 93 b2 ce 3d f6 55 8f bc 57 55 c5 be b1 f7 51 bd
       0.10092654 -0.017497044 -0.38541672 -0.051261608
0001c0 78 9e 90 bd 6b 91 27 bd b1 99 de 3d 7f e0 64 be
       -0.070614755 -0.040910166 0.10869158 -0.22351263
0001d0 e5 8b 9b 3d 43 e4 06 bf 47 f9 99 3d 6c d6 8c bd
       0.07595042 -0.5269205 0.07518249 -0.06876835
0001e0 67 c6 0a 3f 87 2f 52 be 15 66 35 3f d9 e3 4e be
       0.5420899 -0.20525943 0.7085889 -0.20204104
0001f0 c2 af 00 3f ee b8 04 bf 1a 13 9c 3e 8e be 21 3e
       0.50268185 -0.5184468 0.30483323 0.15795347
000200 49 03 80 be 16 23 c0 3d eb e1 0f 3e dc 4d 75 be
       -0.25002506 0.09381692 0.14051025 -0.23955482
000210 55 33 3e bd 85 f4 8d 3e e2 f8 3c 3e d8 db 08 3d
       -0.046435673 0.27725616 0.18454316 0.033412784
000220 a3 a2 85 be 05 a4 88 3e 89 49 2f be 5d b9 3a be
       -0.26100644 0.26687637 -0.17117895 -0.18234773
000230 9f 44 5d 3e 01 17 4f 3e 6c 1f 07 bd 33 6b e3 bc
       0.21608208 0.20223619 -0.03298895 -0.027761078
000240 c9 f1 21 3e 16 8d 40 3d 99 2a a7 3e c3 23 93 bd
       0.1581489 0.04700955 0.32649687 -0.071845554
000250 5d ad 36 be 10 cd 37 bd fc 11 9b 3e 6f 74 43 3e
       -0.1783957 -0.044873297 0.30287158 0.19087385
000260 9b 6a a8 bc 0d 6b c6 3c d0 79 13 3e 95 1a a8 3e
       -0.020558646 0.024220968 0.14401937 0.3283278
000270 24 61 6d 3e 42 8a 16 3e ca b4 2b be b1 40 a6 bd
       0.23181587 0.14701179 -0.16768184 -0.08117808
000280 f0 28 72 be fe 19 e9 bd 6a c8 29 3e 05 ae ab 3e
       -0.23648429 -0.11381911 0.16580358 0.33531204
000290 dc 68 cb bd 5c 66 98 3d f8 61 14 3e 49 6a 87 bc
       -0.0993211 0.074413985 0.14490497 -0.016530173
0002a0 e0 32 d0 bc da 49 91 bd b4 12 17 3d 37 c1 f7 3e
       -0.025414884 -0.07094164 0.03688307 0.483896
0002b0 82 c5 80 3d 46 e3 40 bc df 00 17 3d 46 9a fa bc
       0.062876716 -0.011772936 0.036866065 -0.030591141
0002c0 00 34 8c 3d 58 22 fc 39 68 7a 96 3d 99 f4 cf 3b
       0.06845856 0.00048090774 0.07347566 0.006346297
0002d0 25 e3 ff bc 0f ee 59 3c af 05 2a bc 3b 27 30 3d
       -0.03123624 0.0133013865 -0.010377332 0.043006163
0002e0 4d 04 de 3c 56 06 1d 3d 66 82 a4 be f6 39 71 3b
       0.02710166 0.03833612 -0.32130736 0.003680823
0002f0 2a bc 47 3d a1 0c 5d 3d ac 07 50 3d 1d 43 60 bf
       0.04876343 0.053967122 0.050788566 -0.87602407
000300 00 64 cb bc 5b 92 26 bf 3f f2 02 bf d6 75 d2 bc
       -0.024827957 -0.6506707 -0.5115089 -0.025690954
000310 47 1c 67 3e 89 d3 5c 3d fa e5 39 3e 31 d0 e3 bd
       0.2256938 0.053912673 0.18154135 -0.11123694
000320 fe db fb bd ae 09 27 be bc d4 42 be 8f ef 96 3c
       -0.122978196 -0.16312286 -0.19026464 0.018424777
000330 56 a6 5f 3e 76 19 92 3d 61 7c 50 3e 38 98 91 bd
       0.21840796 0.071337625 0.20359947 -0.071091115
000340 c6 e0 0a bd 5b a3 61 bd c0 ba 68 bc 98 ca 1f 3d
       -0.033905767 -0.05508743 -0.014204681 0.039011568
000350 aa 95 cd be 8e a8 9f 3e b7 83 88 bc 4e 8e 02 3e
       -0.40153247 0.31183285 -0.016664369 0.12749597
000360 af ee 91 be a4 11 4a 3e 69 64 c2 be d3 f9 f8 3c
       -0.28502414 0.19733292 -0.37967232 0.030392563
000370 a9 88 8a bc 66 25 bf bd 59 a1 5f be 96 fa 4c 3d
       -0.016910868 -0.09333305 -0.21838893 0.050043665
000380 0d b8 0e 3c 2f 50 c7 3d 3e 5c 51 be ec 27 af 3d
       0.008710873 0.09732091 -0.20445344 0.08552536
000390 3d 98 b9 3d c6 26 34 bd 7e 3d bb bd ed 78 8b bd
       0.0906224 -0.04398229 -0.09142588 -0.06810174
0003a0 51 a6 89 bd 3a 6d 68 3a 55 5d 5b 3d ce b5 4e bd
       -0.067211755 0.00088663737 0.053555805 -0.05046635
0003b0 49 8d 33 be 09 29 04 3d 18 b0 d8 bc 4f ed c0 bd
       -0.17534365 0.032265697 -0.026451156 -0.09420263
0003c0 4a 90 81 3e cd 76 77 be cb 4c b0 3e 61 17 c2 be
       0.25305396 -0.24166413 0.34433588 -0.37908462
0003d0 55 14 28 3d 81 bd e1 3d f6 9d b7 3e 93 dc 56 bd
       0.041035015 0.11022473 0.35862702 -0.05245645
0003e0 3f c3 2d 3f 31 e8 09 bf e4 71 73 3f 24 c6 bd be
       0.67876047 -0.5386992 0.9509566 -0.37065232
0003f0 3a 20 92 3e 9a 52 6f be 15 3f 04 bf d1 01 18 bf
       0.28540212 -0.23371354 -0.51658756 -0.5937777

sequential_1/dense_4/MatMul f4 [10, 20]
000000 25 94 6d 3f 50 02 f5 3e 05 1f 2a 3f a6 be 86 be
       0.92804176 0.47853327 0.6645358 -0.26317328
000010 87 90 17 3f 5c c3 01 3f 37 40 14 3c 8c ca 65 3f
       0.59204906 0.5068872 0.009048513 0.89762187
000020 a8 33 e7 3e 9c b1 ee 3e 36 dd 59 3f e6 f4 0e 3e
       0.45156598 0.4661988 0.85103166 0.13960609
000030 13 ec e9 3e 39 f4 f3 3e a7 89 b6 3e 34 bf 0a 3f
       0.45687923 0.47647265 0.35651895 0.54198
000040 20 67 9e be 42 54 c6 bd 89 50 a9 be c2 9d 16 3d
       -0.30938053 -0.0968404 -0.33069256 0.036771543
000050 d0 4a 3e 3f ee 90 94 3e db 08 3a 3f 9e 71 1a be
       0.74332905 0.29016823 0.7266976 -0.15082404
000060 07 a0 c9 3d 85 5d 20 3f 94 90 9c 3d fc 28 32 3f
       0.09844976 0.626427 0.076447636 0.6959379
000070 54 80 43 3e bf 7e 39 3e 0f a3 46 3f a4 9f 1a 3e
       0.19091922 0.18114756 0.7759256 0.1509996
000080 92 12 c4 3e 67 35 99 3e 2e 79 6c 3f 6a 96 1d 3f
       0.38295418 0.29923555 0.92372406 0.6155764
000090 9f e9 18 3f d2 5d 1b 3f 71 5a bd bd a6 40 f1 3d
       0.5973148 0.60690033 -0.09245766 0.11779909
0000a0 66 c6 88 3d aa 79 e4 bb 4c 4b 8c bd e9 c3 b7 3e
       0.066784665 -0.0069725113 -0.06850299 0.35891655
0000b0 68 b1 8d 3e 5c 3b fd 3d 12 25 bb 3d 7b d5 44 be
       0.27674413 0.123648375 0.0913793 -0.19222061
0000c0 84 18 47 3e c7 8d 50 3f db 95 f9 be c5 f7 32 3e
       0.19442946 0.81466335 -0.48747143 0.17477329
0000d0 71 ac 29 3f 64 a5 7a bd 47 d3 49 bf a1 63 45 3d
       0.6627875 -0.061192885 -0.7883801 0.048190717
0000e0 fc 93 b7 3e 39 df 22 3f 27 56 ce bd 57 3a 04 be
       0.3585509 0.6362186 -0.10075026 -0.1291288
0000f0 f7 96 b7 be 60 44 97 be 49 74 e1 bd bc a2 6b 3e
       -0.35857365 -0.29544353 -0.11008508 0.23011297
000100 d6 b0 fd be de ee c3 3e 4d ff bb 3e 30 b1 3e 3f
       -0.49548978 0.3826818 0.36718217 0.74489117
000110 40 6e 96 3e bb 18 33 bf 22 ca 52 bf d7 78 68 3e
       0.2938099 -0.6995961 -0.8233968 0.22702347
000120 a6 66 0c bf ff ae da 3e 17 09 e2 be 10 4a 42 3e
       -0.5484413 0.42711636 -0.4414756 0.18973565
000130 8c 5e e2 be 6b dc 0b be ca c0 5d bd 16 8e 25 3e
       -0.4421276 -0.13658302 -0.054138936 0.16167483
000140 cd e1 0d bf 3e 65 9a 3e da fb 09 bf b4 26 61 3a
       -0.5542267 0.30155367 -0.5389992 0.0008588836
000150 77 8c 66 3e 18 ac a7 be c0 08 9b bc 81 5a 51 bf
       0.2251452 -0.32748485 -0.01892507 -0.81778723
000160 68 5d d8 be b8 09 37 3d db 7f de be f9 e0 80 3e
       -0.42258763 0.044687003 -0.4345692 0.2517164
000170 28 a3 ad 3e ef 96 55 be 83 d2 cb be 8c 2a 28 be
       0.3391354 -0.20858358 -0.39809045 -0.1642248
000180 f4 bb e6 3e 4f 89 f7 3e b2 f1 a3 bc 58 1a 0a 3f
       0.45065272 0.48346946 -0.02001271 0.5394645
000190 95 5c 3d bf 2a 48 18 3d 1b b7 19 3f c5 05 a4 be
       -0.73969394 0.037178196 0.6004502 -0.32035652
0001a0 e8 e9 6b 3d ab fa 5a 3f 7d f0 c7 3e 5e 6d 72 3f
       0.057596117 0.8553874 0.39050665 0.9469813
0001b0 e3 95 66 3f 2b 4b 14 be 9d 0d 24 3e 8c d3 39 3e
       0.9007246 -0.144818 0.16020818 0.18147105
0001c0 99 37 11 be 6f 55 a2 3e 91 bc 2b 3e f2 6f 0b 3f
       -0.14181365 0.31705806 0.16771151 0.5446769
0001d0 a4 73 bb be 74 15 c3 be 84 78 08 3d 93 48 d5 bd
       -0.36611664 -0.38102305 0.033318058 -0.10414233
0001e0 17 db 02 bf 60 65 0a 3e 42 4c f5 be e9 06 1d 3e
       -0.51115555 0.13515234 -0.47909743 0.15334667
0001f0 c3 40 c7 3e 0a 23 1f be e6 ee fa ba 69 9e 1e bf
       0.38916597 -0.1554071 -0.0019144684 -0.61960465
000200 ed dc 02 bf bb df d1 3e fe 94 ad be 2d d8 1f 3f
       -0.51118356 0.40991005 -0.33902735 0.62439233
000210 da 04 e1 3d 9d d9 a7 3b 76 77 1c bf ed 8f 98 3d
       0.109872535 0.005122377 -0.6111978 0.07449327
000220 13 06 4f 3f 1c 17 4d bb 0e 00 48 3f fd f2 19 3f
       0.80868644 -0.0031294292 0.78125083 0.60136396
000230 d9 7a fa 3e c8 de 24 bf ed fb 14 3f 29 82 50 bd
       0.4892185 -0.6440244 0.5819691 -0.05090538
000240 e1 85 1e bf 43 67 9f be b3 95 05 3f b8 49 2a 3f
       -0.61923033 -0.3113347 0.5218155 0.66518736
000250 35 70 2e 3e 84 a5 02 bf c7 0c 95 bd f1 11 38 3e
       0.17034991 -0.51033807 -0.07277828 0.17975594
000260 a5 66 db be 7e ea ae 3e 7a 20 a1 be 3b 0a 80 3e
       -0.4285175 0.34163278 -0.3147009 0.25007805
000270 df ac 30 be a9 4a d0 be 96 3a 2a 3f 2d ee ad 3e
       -0.17253445 -0.4068196 0.66495645 0.33970776
000280 a3 fe 35 bf d7 8b 0c bf d5 29 80 be 21 07 b7 bd
       -0.7109167 -0.5490088 -0.25031915 -0.089369066
000290 e6 70 6d bf 54 a5 19 be 77 28 2f bb 0c 49 4e bd
       -0.92750394 -0.15004474 -0.0026727 -0.05036263
0002a0 c3 09 ac 3e 8b 41 0d bf 8a ec b5 be 31 98 91 3e
       0.33601198 -0.55178136 -0.35532027 0.28436425
0002b0 0a a9 75 be 1b cc 84 3d 19 bc bb be ec 0b 62 be
       -0.23990265 0.064842425 -0.36666945 -0.2207486
0002c0 0d d2 52 bf 92 44 47 bf 3e 8b a4 3e c4 5e 06 3f
       -0.8235176 -0.77839005 0.32137483 0.5248835
0002d0 9b ad da 3e 3e 44 70 3f cf 02 82 3e f1 0f 12 be
       0.42710575 0.9385413 0.25392768 -0.14263894
0002e0 c2 79 45 3f 99 5b 1d 3f 2c 66 73 3c 6b 6c 2e 3e
       0.7713891 0.6146789 0.014855903 0.17033546
0002f0 46 1d 76 3e 36 8a 1f 3f d3 38 24 3e 4c 7f c1 3d
       0.24034604 0.6232027 0.16037302 0.09448108
000300 06 80 c4 3e c0 29 9c 3e e1 33 2a 3f a8 c2 03 3e
       0.38378924 0.30500603 0.6648541 0.12867224
000310 2c 02 56 3f c1 31 5a 3f e3 92 92 3c ab 5b a7 3d
       0.83597064 0.8523217 0.017892307 0.08171781

sequential_1/dense_5/MatMul f4 [3, 10]
000000 88 0a 75 bf ca 95 be bf 97 6f 48 bf ff 5c 8b 3f
       -0.95719194 -1.4889462 -0.7829527 1.0887755
000010 8a 52 c2 bd cd 80 0b 3e a0 d4 2e 3d ad 9a fd 3e
       -0.09488399 0.13623352 0.042683244 0.4953207
000020 69 2b 26 3f a3 b7 b2 bf 9f b8 8a be 21 6a d4 be
       0.6490999 -1.3962291 -0.2709398 -0.4148722
000030 c1 b8 8b 3e a0 de 81 bf bd 2d a1 3f ab a9 84 bf
       0.27289394 -1.0146065 1.2592083 -1.0364279
000040 ed 0d 18 3f b0 d0 1f bf e7 5e 46 bf 1d 88 30 be
       0.5939625 -0.62427807 -0.7748856 -0.17239423
000050 07 ad 95 3f 89 56 42 3f 60 30 24 bd 93 ca 06 bd
       1.1693429 0.7591329 -0.040085196 -0.032908034
000060 67 21 0c bf bd af 07 3e 58 6a 1c bf 12 9e 7c be
       -0.5473847 0.13250633 -0.6109977 -0.24669674
000070 e3 ee 7b bf 5b bd 9d bd
       -0.9841139 -0.07702132
